…
            "- classifier.weight: found shape torch.Size([1000, 768]) in the checkpoint and torch.Size([4, 768]) in the model instantiated\n",
            "You should probably TRAIN this model on a down-stream task to be able to use it for predictions and inference.\n"
          ]
        },
        {
          "output_type": "execute_result",
          "data": {
            "text/plain": [
              "ViTForImageClassification(\n",
              "  (vit): ViTModel(\n",
              "    (embeddings): ViTEmbeddings(\n",
              "      (patch_embeddings): ViTPatchEmbeddings(\n",
              "        (projection): Conv2d(3, 768, kernel_size=(16, 16), stride=(16, 16))\n",
              "      )\n",
              "      (dropout): Dropout(p=0.0, inplace=False)\n",
              "    )\n",
              "    (encoder): ViTEncoder(\n",
              "      (layer): ModuleList(\n",
              "        (0-11): 12 x ViTLayer(\n",
              "          (attention): ViTAttention(\n",
              "            (attention): ViTSelfAttention(\n",
              "              (query): Linear(in_features=768, out_features=768, bias=True)\n",
              "              (key): Linear(in_features=768, out_features=768, bias=True)\n",
              "              (value): Linear(in_features=768, out_features=768, bias=True)\n",
              "            )\n",
              "            (output): ViTSelfOutput(\n",
              "              (dense): Linear(in_features=768, out_features=768, bias=True)\n",
              "              (dropout): Dropout(p=0.0, inplace=False)\n",
              "            )\n",
              "          )\n",
              "          (intermediate): ViTIntermediate(\n",
              "            (dense): Linear(in_features=768, out_features=3072, bias=True)\n",
              "            (intermediate_act_fn): GELUActivation()\n",
              "          )\n",
              "          (output): ViTOutput(\n",
              "            (dense): Linear(in_features=3072, out_features=768, bias=True)\n",
              "            (dropout): Dropout(p=0.0, inplace=False)\n",
              "          )\n",
              "          (layernorm_before): LayerNorm((768,), eps=1e-12, elementwise_affine=True)\n",
              "          (layernorm_after): LayerNorm((768,), eps=1e-12, elementwise_affine=True)\n",
              "        )\n",
              "      )\n",
              "    )\n",
              "    (layernorm): LayerNorm((768,), eps=1e-12, elementwise_affine=True)\n",
              "  )\n",
              "  (classifier): Linear(in_features=768, out_features=4, bias=True)\n",
              ")"
            ]
          },
          "metadata": {},
          "execution_count": 9
        }
      ]
    },
    {
      "cell_type": "code",
      "source": [
        "criterion = nn.CrossEntropyLoss()\n",
        "optimizer = optim.AdamW(model.parameters(), lr=learning_rate)\n"
      ],
      "metadata": {
        "id": "3NzfUawwf-CQ"
…
